x_train shape: (60000, 28, 28, 1)
60000 train samples
10000 test samples
Model: "sequential_1"
_________________________________________________________________
 Layer (type)                Output Shape              Param #   
=================================================================
 conv2d_3 (Conv2D)           (None, 26, 26, 32)        320       
                                                                 
 max_pooling2d_2 (MaxPoolin  (None, 13, 13, 32)        0         
 g2D)                                                            
                                                                 
 conv2d_4 (Conv2D)           (None, 11, 11, 64)        18496     
                                                                 
 max_pooling2d_3 (MaxPoolin  (None, 5, 5, 64)          0         
 g2D)                                                            
                                                                 
 flatten_1 (Flatten)         (None, 1600)              0         
                                                                 
 dropout_4 (Dropout)         (None, 1600)              0         
                                                                 
 dense_3 (Dense)             (None, 10)                16010     
                                                                 
=================================================================
Total params: 34826 (136.04 KB)
Trainable params: 34826 (136.04 KB)
Non-trainable params: 0 (0.00 Byte)
_________________________________________________________________
Epoch 1/15
422/422 [==============================] - 19s 43ms/step - loss: 0.3618 - accuracy: 0.8903 - val_loss: 0.0827 - val_accuracy: 0.9787
…
